data.pth (torch, 6143 bytes, 6 tensors)

l1.weight f4 [8, 48]
0	0xbdeefc36	-0.11669199
1	0x3d95bdbc	0.073115796
2	0xbf309223	-0.68972987
3	0x3fa51c6b	1.2899297
4	0x3f8bac6d	1.0911995
5	0xbd71f1c7	-0.059068467
6	0xbfc66ff3	-1.5502914
7	0x3ea13c17	0.31491157
8	0xbef7ce2b	-0.4839948
9	0x3e6c5f3a	0.23083201
10	0xbf59941b	-0.84991616
11	0x3f8313c5	1.0240408
12	0x3b62c7d9	0.0034603982
13	0xbf9d643f	-1.2296218
14	0xbd955bc4	-0.072928935
15	0x3f69e845	0.9137004
16	0x3f80e4b6	1.0069797
17	0x3fa056a6	1.2526443
18	0x3e9134b3	0.2836052
19	0x3ed15993	0.40888652
20	0x3ea77a51	0.32710508
21	0xbe8ac454	-0.2710291
22	0xbe7a48f6	-0.24441895
23	0x3ff83f7f	1.9394377
24	0x3ee82e9c	0.4534806
25	0x3fc9ca7d	1.576492
26	0x3fc92277	1.5713643
27	0xbf83af35	-1.0287844
28	0x3eb31d03	0.34983072
29	0xbf159bd7	-0.5844092
30	0x3e13de2e	0.14440224
31	0x3f5fc3d4	0.87408185
32	0xbdbf9e0a	-0.093563154
33	0x3f9be6c5	1.21798
34	0xbf8210fa	-1.0161431
35	0x3cd43e3d	0.025908584
36	0xbf725cdc	-0.9467294
37	0x3f4fe8d1	0.81214625
38	0x3ef70865	0.48248592
39	0x3d68320f	0.056688365
40	0x3dcff1d8	0.1015355
41	0x3f1e77b0	0.6190138
42	0xbfcf2f42	-1.6186297
43	0x3ecb3bcc	0.3969406
44	0x3ea24f13	0.31700954
45	0x3f4c7e77	0.7988047
46	0x3eae770c	0.340752
47	0xbf6241e1	-0.88381773
48	0x3df4a0c2	0.119447246
49	0xbf8ef700	-1.1169128
50	0xbfd49223	-1.6607097
51	0xbf8cee39	-1.10102
52	0xbdf9f6cd	-0.12205277
53	0x3d7088fa	0.05872438
54	0x3f800363	1.0001034
55	0x3fc94e13	1.5726951
56	0xbf1cd18a	-0.6125723
57	0xbedc67ce	-0.43047947
58	0x3f8d635c	1.1045947
59	0xbfaa6af2	-1.3313887
60	0xbdb0805a	-0.08618231
61	0xbea0a0b7	-0.31372616
62	0xbd2f866f	-0.042852815
63	0x3eb15e15	0.3464209
64	0x3ee7636a	0.45193034
65	0x3ea7bf71	0.32763246
66	0x3e871f77	0.26391193
67	0x3c8d3581	0.017237427
68	0x3ed7c722	0.42144114
69	0xbd07a2f2	-0.03311438
70	0x3e5287ea	0.2055966
71	0x3e2d29c8	0.1691047
72	0x3d949099	0.07254142
73	0xbfa49150	-1.2856846
74	0x3f81e22f	1.0147151
75	0xbf415f6a	-0.75536215
76	0x3e830d27	0.25595972
77	0xbe33d5a2	-0.17561963
78	0x3e5cd314	0.21564895
79	0x3fbc233b	1.4698251
80	0x3f18dcef	0.5971212
81	0x3f796e3f	0.9743385
82	0x3ea1dca1	0.3161364
83	0x3d9a845d	0.075447775
84	0xbf7f6e4e	-0.99777687
85	0xbf977e2d	-1.1835381
86	0xbdb956f1	-0.09049786
87	0x3e51afce	0.2047722
88	0xbf8d0144	-1.1016011
89	0x3e27f098	0.16400373
90	0xbf2729a0	-0.6529789
91	0x3e8a4608	0.27006555
92	0x3e40b463	0.18818812
93	0xbe5a93f3	-0.213455
94	0xbde00e20	-0.10940194
95	0xbfb616df	-1.422573
96	0x3dd4d317	0.10391825
97	0xbfba3c19	-1.454959
98	0x3f2bf5be	0.6717185
99	0xbe42be80	-0.19017982
100	0x3f384d68	0.7199311
101	0x3e852f96	0.26012868
102	0x3fb05cd4	1.3778329
103	0x3fb4eaa0	1.4134102
104	0x3fb4896f	1.4104441
105	0x3f98af77	1.1928548
106	0xbf067bc1	-0.52532583
107	0xbf05622b	-0.5210292
108	0x3e94f579	0.2909353
109	0x3faf5d33	1.3700317
110	0x3e869fb1	0.2629371
111	0xbef2a5b7	-0.47392055
112	0xbef273ec	-0.47354066
113	0xbef288bd	-0.47369948
114	0x3ef2bb30	0.47408438
115	0x3f02ff8e	0.51171196
116	0x3ec23a75	0.37935224
117	0xbd90d7ab	-0.070723854
118	0xbe5bf3d5	-0.21479733
119	0xbddd007b	-0.10791107
120	0x3eb472aa	0.35243732
121	0xbfb52f7d	-1.4155117
122	0x3ec91d5c	0.39280212
123	0xbfc608cc	-1.5471435
124	0x3ed4de80	0.41576004
125	0x3f11f8e9	0.5702043
126	0x3e4128f1	0.18863274
127	0x3fb98d31	1.4496213
128	0x3f4c5604	0.7981875
129	0xbfbd204f	-1.4775485
130	0xbfcdb5b2	-1.6071074
131	0x3e34809c	0.17627186
132	0x3fbcdf38	1.4755621
133	0xbf8ff063	-1.1245235
134	0x3db4c397	0.08826368
135	0x3e6e0abb	0.23246281
136	0xbfa1af89	-1.2631694
137	0x3ecd223a	0.40065175
138	0xbf196d4b	-0.5993239
139	0x3ed352ae	0.41274017
140	0x3ead4c36	0.33847207
141	0xbe28258c	-0.16420573
142	0x3e8372f6	0.25673646
143	0x3f4d0568	0.80086374
144	0x3ea9f6f9	0.33196238
145	0xbfb6a483	-1.4268955
146	0x3f78ae96	0.97141397
147	0xbf8b92c7	-1.0904168
148	0xbf1c1d22	-0.60981953
149	0xbea4ae4e	-0.32164234
150	0x3e95c54b	0.29252085
151	0xbea19a3e	-0.3156299
152	0xbebec18e	-0.37257046
153	0xbe4d5fa8	-0.20056021
154	0x3f7a4231	0.9775725
155	0x3ff49d1c	1.9110446
156	0xbe9df25a	-0.30848962
157	0x3ca3e5fa	0.020007122
158	0xbea9945c	-0.33121002
159	0xbeb66756	-0.35625714
160	0xbeb66ee0	-0.35631466
161	0xbeb64c10	-0.35604906
162	0x3ec53803	0.38519296
163	0xbdb4063a	-0.0879025
164	0x3eb68ef1	0.3565593
165	0xbe863270	-0.26210356
166	0x3eca5293	0.39516124
167	0x3e944270	0.28956938
168	0x3e301b3d	0.1719789
169	0xbf9cd2cd	-1.2251831
170	0x3ee3f772	0.44524723
171	0x3f2d8815	0.6778577
172	0x3e94376d	0.28948537
173	0x3f68f56a	0.9099947
174	0x3e233748	0.15939057
175	0x3fbcf007	1.476075
176	0xbf5e09cf	-0.86733717
177	0xbf964352	-1.1739295
178	0xbf1565ed	-0.5835865
179	0x3e7c4395	0.24635155
180	0x3fb39815	1.4030787
181	0xbf28eae5	-0.6598342
182	0xbedc2ed2	-0.4300447
183	0x3e8d572f	0.27605578
184	0xbe8fab98	-0.28060603
185	0x3e0b5b88	0.13609135
186	0xbf6320a7	-0.887217
187	0xbdae4d46	-0.085108325
188	0x3e83ad8c	0.25718343
189	0x3efdf3fe	0.49600214
190	0xbf2ac052	-0.6669971
191	0x3faf7583	1.3707737
192	0x3d665dd7	0.056241836
193	0x3f731230	0.94949627
194	0x3f9bc794	1.2170281
195	0xbfb46ad3	-1.40951
196	0x3e8bef40	0.2733097
197	0xbe8e4690	-0.2778821
198	0xbee56d23	-0.44809827
199	0xbfb3182a	-1.3991749
200	0xbf4b742c	-0.7947414
201	0xbe0fbec2	-0.14037612
202	0x3fe32807	1.774659
203	0x3fdf766d	1.7458016
204	0xbec52f3c	-0.385126
205	0xbfbb0f03	-1.4613956
206	0xbeb92e9a	-0.36168367
207	0x3d6bf70d	0.057608653
208	0x3d82180f	0.06352245
209	0x3da67373	0.08127489
210	0x3efab455	0.48965707
211	0x3e4ade55	0.19811375
212	0x3e8267c2	0.25469786
213	0xbe27ff28	-0.16405928
214	0x3e0506eb	0.1299092
215	0xbe929e4d	-0.286364
216	0xbe05d03e	-0.1306772
217	0x3fddf251	1.7339574
218	0xbf739ceb	-0.9516131
219	0x3f969390	1.1763783
220	0x3ed4ab8b	0.41537127
221	0x3efd5a53	0.49482974
222	0x3e17059e	0.14748237
223	0xbd8d1442	-0.068886295
224	0x3f526b15	0.82194644
225	0xbf904334	-1.1270509
226	0xbf594985	-0.84877807
227	0x3e091d9b	0.133902
228	0x3f98635d	1.1905323
229	0x3ef27340	0.47353554
230	0xbeb78be1	-0.35848907
231	0x3ebbef84	0.36706173
232	0x3fcfdfc4	1.6240163
233	0x3ea02c9a	0.31284028
234	0xbf6aadb1	-0.9167128
235	0x3e9a6a70	0.3015933
236	0x3e4ad706	0.19808587
237	0x3f9c5aa6	1.2215164
238	0xbe9461a2	-0.28980738
239	0xbf4c0b17	-0.7970442
240	0x3f18de23	0.59713954
241	0xbf95ca56	-1.1702373
242	0xbf81e72f	-1.0148677
243	0x3f809b5e	1.0047414
244	0x3ca66245	0.02031053
245	0x3f5c3f26	0.86033857
246	0xbf1f1f9d	-0.62157613
247	0xbe7e0c3a	-0.24809352
248	0x3f7c3c0b	0.9852912
249	0x3f848323	1.035252
250	0xbf811935	-1.0085818
251	0xbf92bbd1	-1.1463567
252	0x3f423fa0	0.75878334
253	0x3f974a97	1.1819638
254	0x3f340c55	0.7033132
255	0x3e926b63	0.28597555

l1.bias f4 [8]
0	0x3f731845	0.9495891
1	0x3e55749a	0.20845261
2	0x3ef28220	0.47364902
3	0x3eb65538	0.35611892
4	0x3efa4179	0.48878077
5	0x3fb84d01	1.43985
6	0x3f4ec73b	0.8077275
7	0x3e0a396b	0.13498466

l2.weight f4 [8, 8]
0	0xbf77ecb4	-0.96845555
1	0x401256f5	2.2865574
2	0x3faa1985	1.3289038
3	0x3f1a76c8	0.60337496
4	0x3e711211	0.23542048
5	0x3fa35f7f	1.2763518
6	0xbecd428e	-0.4008984
7	0x3e3c9e10	0.18419671
8	0x3f8f468c	1.1193404
9	0x3fbf25d6	1.4933422
10	0x3d6cf9d5	0.057855446
11	0x40008e2c	2.0086775
12	0x3ffdaf94	1.9819207
13	0xbf8b2170	-1.0869579
14	0x3ef75dbb	0.48313698
15	0xbe82ef1e	-0.25573057
16	0xbfc90bbf	-1.570671
17	0x3fe00946	1.750283
18	0xbe5f17f3	-0.2178648
19	0x3ff0d84d	1.881601
20	0x3dc66142	0.09686519
21	0x3ee64872	0.44977146
22	0x3f6f99ca	0.9359404
23	0x3fcfee35	1.624457
24	0x3fd87a4c	1.6912322
25	0xbc08d111	-0.008350627
26	0x3fdc6238	1.7217474
27	0xbd1d5c04	-0.03841783
28	0xbffb306e	-1.9624155
29	0x40024ef3	2.0360687
30	0x3f571f6b	0.84032315
31	0xbf00288c	-0.5006187
32	0xbf8e482c	-1.1115775
33	0xc00ce6ff	-2.201599
34	0x3e690002	0.22753909
35	0x3f349490	0.7053919
36	0x3fbc4200	1.4707642
37	0x3eaf05eb	0.34184203
38	0x3f5689a2	0.8380376
39	0x3fc501ad	1.5391136
40	0x40013fc2	2.0195165
41	0xbdcffd84	-0.10155776
42	0xc0026778	-2.0375652
43	0xbfa305de	-1.2736166
44	0x3f0f71e0	0.56033134
45	0x3ee3fe6b	0.44530043
46	0x3fb118c0	1.3835678
47	0xbd0c1c0f	-0.034206446
48	0x3fa8ddb2	1.3192656
49	0x40059e2f	2.0877798
50	0x4002d304	2.0441294
51	0x3f282c00	0.6569214
52	0xbee21132	-0.44153744
53	0xbf87bba7	-1.0604142
54	0x3f3fbfac	0.74901843
55	0x3f644f8d	0.89183885
56	0x3f8e6557	1.1124676
57	0xbfcd9ab0	-1.6062832
58	0x3eff8158	0.4990337
59	0x3fc5d0a2	1.5454295
60	0x3fef7420	1.8707314
61	0x3f33ccd9	0.7023445
62	0xbf202277	-0.6255259
63	0xbf30dc3d	-0.69086057

l2.bias f4 [8]
0	0x3f9c9082	1.22316
1	0x3eb7b774	0.3588215
2	0xbdb2792f	-0.0871452
3	0x3f94f1d3	1.1636299
4	0xbcef9eea	-0.02925058
5	0x3f5c9ed8	0.86179876
6	0xbf45f918	-0.7733321
7	0x3f4cbfda	0.7998024

l3.weight f4 [34, 8]
0	0xbf857337	-1.0425786
1	0xbea54339	-0.3227785
2	0x3d91a796	0.071120426
3	0xbf341270	-0.70340633
4	0x3f25bb25	0.64738685
5	0x3f3d2cea	0.7389666
6	0xbe766558	-0.24062097
7	0xbf891a71	-1.0711194
8	0xbf19483a	-0.59875834
9	0xc02d420d	-2.7071564
10	0xbe563a26	-0.2092062
11	0x3f06b7ef	0.5262441
12	0x3caa9bde	0.020826276
13	0x3ef9899b	0.48737797
14	0xbced6afc	-0.028981678
15	0xbf4d5518	-0.8020797
16	0x3f3d5da3	0.73971003
17	0xbffd724d	-1.9800507
18	0xbfe26fc6	-1.769036
19	0x3f476c84	0.77899957
20	0xc01a8f50	-2.414997
21	0xc01483a4	-2.3205347
22	0x3e003983	0.12521939
23	0x3f079976	0.5296854
24	0x3ea9679b	0.33086857
25	0x3ed8e74b	0.42363963
26	0xbf95d509	-1.1705638
27	0xbf3efc04	-0.74603295
28	0xbf8d56bd	-1.1042095
29	0xbed13feb	-0.40869078
30	0xbdcb8a89	-0.09938533
31	0x3eb9aff7	0.36267063
32	0xbe0705ef	-0.13185857
33	0x3e646f5d	0.22308107
34	0xbf57ee56	-0.84348047
35	0xbfee0400	-1.8594971
36	0x3edcfb57	0.43160507
37	0xc002aad3	-2.0416763
38	0x3cef68d1	0.029224785
39	0x3f6f085b	0.93372124
40	0xbf1ab9a1	-0.604395
41	0x3eb641c0	0.35597038
42	0xbfa2c3ef	-1.2716044
43	0xc00ab23c	-2.1671286
44	0x3eafc557	0.34330246
45	0x3eafd653	0.34343204
46	0xbf7a1c86	-0.97699773
47	0x3f447b58	0.7675071
48	0xbff89056	-1.9419048
49	0x3db1e034	0.086853415
50	0xbfdfa20c	-1.7471328
51	0x3e4a5841	0.19760229
52	0xbffeed0b	-1.991609
53	0x3eb30d2a	0.3497098
54	0x3f0fdb2d	0.5619381
55	0xbea4f1af	-0.3221564
56	0xbfe1f5ad	-1.7653099
57	0x3e4ab199	0.1979431
58	0xbf82149e	-1.0162542
59	0xbf0a12c4	-0.53934884
60	0xc037473a	-2.8637223
61	0x3f083eee	0.53221023
62	0xbe8d3480	-0.27579117
63	0x3f5818bd	0.8441275
64	0x3e26d413	0.16291837
65	0xbf5ff5f7	-0.8748469
66	0xc02a3e9e	-2.6600718
67	0x3ee6f690	0.45109987
68	0xbfd2bacc	-1.6463256
69	0xbd9532d2	-0.07285084
70	0x3e81abfe	0.25326532
71	0x3d89648d	0.06708632
72	0x3ec34b0a	0.38143188
73	0xbdacf827	-0.08445769
74	0xbffadfeb	-1.9599584
75	0xbda33d61	-0.079706915
76	0x3d89f5b0	0.06736314
77	0xc007227a	-2.1114793
78	0xbdd41a03	-0.10356524
79	0x3ec905d3	0.39262256
80	0x3ef6b940	0.4818821
81	0xbf153072	-0.58277047
82	0x3ec77579	0.38956812
83	0xbf04f88b	-0.51941746
84	0x3eae8057	0.3408229
85	0xc01b8282	-2.4298406
86	0x3ef7d9bd	0.4840831
87	0xbfe75d91	-1.8075429
88	0x3e076f4d	0.13226052
89	0xbe80fbad	-0.25192013
90	0xbd4f20ac	-0.050568268
91	0x3e94dfbb	0.29076943
92	0xbf4ac2b8	-0.7920337
93	0xbf1e6a4e	-0.6188096
94	0x3eb8eec5	0.36119667
95	0xc0372084	-2.8613596
96	0x3ef46c02	0.47738653
97	0xbf919500	-1.1373596
98	0xbf11c26e	-0.569373
99	0x3e9363f1	0.28787187
100	0xbc85bc32	-0.01632509
101	0xbf5bd465	-0.85870963
102	0xbddcf475	-0.10788814
103	0xbe02e5f7	-0.12783037
104	0x3e71b053	0.23602419
105	0x3e2d6b87	0.1693555
106	0x3f0b8d10	0.5451212
107	0xbfb936f2	-1.4469893
108	0xbdf01ad2	-0.117238656
109	0xbf877a53	-1.0584205
110	0x3e68f566	0.22749862
111	0xbee98f21	-0.4561701
112	0xbe12e285	-0.14344223
113	0x3d3a1706	0.045432113
114	0x3ee39320	0.44448185
115	0xc01919ff	-2.3922117
116	0x3f39a5d3	0.7251865
117	0xc01802f2	-2.3751798
118	0x3cd4e088	0.025985971
119	0x3e783a43	0.24240975
120	0xbeaba822	-0.33526713
121	0x3d8f41ab	0.06994947
122	0x3e92fed6	0.2871005
123	0xc024fc9a	-2.5779176
124	0x3e719634	0.23592454
125	0x3eb1e251	0.34742978
126	0xbe62dbcc	-0.22154158
127	0x3da399c5	0.079883136
128	0x3f0a679e	0.5406436
129	0xc03bf368	-2.9367313
130	0x3e04e716	0.12978777
131	0x3ec8a857	0.39190933
132	0x3ee125a2	0.43974024
133	0xc029f464	-2.6555414
134	0x3d8c7948	0.0685907
135	0xbf816fd2	-1.011225
136	0x3fa4f8e8	1.288846
137	0xc03a8c6e	-2.9148211
138	0xbfdc4bf0	-1.7210674
139	0x3f849868	1.0359011
140	0xc019a221	-2.4005206
141	0x3e94fb10	0.29097795
142	0xc0186250	-2.3810005
143	0x3ecae4e9	0.3962777
144	0xbe1fd295	-0.15607674
145	0xbe832a6b	-0.256183
146	0xbff79fde	-1.9345663
147	0x3f02c616	0.51083505
148	0xc03dd1bb	-2.965926
149	0x3fb0baeb	1.3807043
150	0xbfabdd2b	-1.342687
151	0xbed505c2	-0.41605955
152	0xbf767c76	-0.9628366
153	0x3d3b91e7	0.04579344
154	0xbe88563a	-0.26628286
155	0xbe4cb2c7	-0.19990073
156	0xbeb03659	-0.34416464
157	0x3e854744	0.26030934
158	0x3eb9f475	0.36319318
159	0xbf214207	-0.62991375
160	0xbfd4ce40	-1.6625443
161	0x3e0ec2f1	0.13941552
162	0xbfa498dc	-1.2859149
163	0xbeae2349	-0.34011295
164	0x3ea61b42	0.3244267
165	0x3f492c9c	0.78583694
166	0xbf0ac8e4	-0.54212785
167	0xbc9a658a	-0.018847246
168	0x3cdee4ba	0.027208675
169	0xbe889dd6	-0.2668292
170	0xbe93af2a	-0.28844577
171	0x3ebeac38	0.37240767
172	0xc00d808e	-2.2109714
173	0xbef39d87	-0.4758112
174	0x3e00e674	0.12587911
175	0xbf31d002	-0.6945802
176	0x3df976fb	0.12180897
177	0xbf559fe9	-0.8344713
178	0x3ed5042b	0.41604742
179	0xbf265b9a	-0.6498352
180	0x3f073fd7	0.52831787
181	0xbe463feb	-0.1936032
182	0xbf8ead85	-1.1146704
183	0xbc71a9d6	-0.014749965
184	0x3f3a397f	0.7274398
185	0xbf5e069d	-0.8672884
186	0xbe8e2307	-0.277611
187	0x3e8e4c70	0.27792692
188	0xbd8ea8cd	-0.0696579
189	0xbfe148e4	-1.760037
190	0xc021dc9f	-2.5290906
191	0x3f37319f	0.7156009
192	0x3de3d90d	0.111253835
193	0x3e776256	0.24158606
194	0x3e6ec08c	0.23315638
195	0xbed1ffeb	-0.41015562
196	0xbf935bf6	-1.1512439
197	0xbff644a6	-1.92397
198	0x3f1e8e99	0.61936337
199	0xbf246d7e	-0.6422957
200	0xbe6ca7a9	-0.23110832
201	0xbe816974	-0.25275767
202	0x3ddd5059	0.10806341
203	0xbf1feb5f	-0.6246852
204	0x3ec04c3d	0.37558165
205	0xbe99ea1f	-0.30061433
206	0x3f1c4e6d	0.6105717
207	0xbfde9c57	-1.7391461
208	0xbf65e139	-0.8979679
209	0x3e055db3	0.13024025
210	0xbe674731	-0.22585751
211	0xbf2be3f3	-0.671447
212	0x3ec494cf	0.38394782
213	0xbdf2064e	-0.11817609
214	0xbe261ba7	-0.16221486
215	0x3e5b556a	0.21419302
216	0xbe843a49	-0.25825718
217	0xbf573d85	-0.84078246
218	0xbb46e3ad	-0.0030348108
219	0x3ee38746	0.44439143
220	0xbfde5c5a	-1.7371933
221	0x3f3d5966	0.73964536
222	0xbe6910a3	-0.22760253
223	0xc01a096f	-2.4068258
224	0xbd4ca825	-0.049965043
225	0xbfc5f51f	-1.546543
226	0x3f0b29e7	0.5436081
227	0x3d01b136	0.031663142
228	0x3e568d43	0.20952325
229	0x3e7d8a3e	0.24759766
230	0xbeeca590	-0.46220064
231	0xc013f682	-2.3119206
232	0xbdadd3aa	-0.08487637
233	0x3dee2191	0.11627496
234	0x3db0f497	0.08640402
235	0xbedb3731	-0.42815545
236	0x3eaebb9d	0.34127513
237	0xc016bc9c	-2.3552618
238	0xbe5b7a4d	-0.21433373
239	0x3dd8ba07	0.10582357
240	0xbdb0e4c1	-0.08637381
241	0xbfe6afb7	-1.8022374
242	0xbf04d399	-0.5188537
243	0x3d2b7090	0.041855395
244	0x3dcebdfe	0.10094832
245	0x3f1d39fd	0.6141661
246	0xbf9a1e9e	-1.2040594
247	0x3f109c48	0.56488466
248	0x3f164ca7	0.5871071
249	0xc0550eb9	-3.3290236
250	0x3dfb10aa	0.12259038
251	0x3f0adb8e	0.54241264
252	0x3d909e72	0.07061471
253	0xbe93d4a7	-0.28873178
254	0xbfab2543	-1.3370746
255	0xbf380c0d	-0.7189339

l3.bias f4 [34]
0	0x3d9b8eeb	0.07595619
1	0xbdc2f012	-0.09518446
2	0xbd9e67a9	-0.07734615
3	0x3e3a0e25	0.18169458
4	0x3dd97842	0.106186405
5	0xbd702e3c	-0.058637843
6	0xbe506b9e	-0.20353553
7	0xbe4d852d	-0.20070334
8	0x3c5ecd7d	0.013598797
9	0xbd54bb39	-0.051936362
10	0x3e283be1	0.16429092
11	0xbede92a2	-0.43471247
12	0x3e5e50e7	0.2171055
13	0x3e619106	0.22027978
14	0xbe53fa5b	-0.20700972
15	0xbeb88870	-0.36041594
16	0x3df6d864	0.12052992
17	0x3e967dc7	0.29392835
18	0x3f477670	0.77915096
19	0xbe921981	-0.28535083
20	0x3e9ac95d	0.30231753
21	0x3d745e7d	0.059660424
22	0xbbe06d61	-0.0068489765
23	0x3f252242	0.645054
24	0xbdfe18b9	-0.12407059
25	0xbede3187	-0.4339716
26	0xbebe9c7a	-0.37228757
27	0xbd78f84f	-0.06078368
28	0xbec3c1b9	-0.38233736
29	0xbeb18ae3	-0.34676275
30	0x3e1c9408	0.15290844
31	0x3eec194d	0.46113053
32	0x3ecc914a	0.39954597
33	0xbe6aeb25	-0.22941263
